…
tn.proj.bias', 'decoder_blocks.7.norm2.weight', 'decoder_blocks.7.norm2.bias', 'decoder_blocks.7.mlp.fc1.weight', 'decoder_blocks.7.mlp.fc1.bias', 'decoder_blocks.7.mlp.fc2.weight', 'decoder_blocks.7.mlp.fc2.bias', 'decoder_norm.weight', 'decoder_norm.bias', 'decoder_pred.weight', 'decoder_pred.bias'])
[22:52:54.263258] ----------------------------------------------------------------
[22:52:54.263432]         Layer (type)               Output Shape         Param #
[22:52:54.263446] ================================================================
[22:52:54.264255]             Conv2d-1          [-1, 768, 14, 14]         590,592
[22:52:54.264332]         PatchEmbed-2             [-1, 196, 768]               0
[22:52:54.264361]            Dropout-3             [-1, 197, 768]               0
[22:52:54.264402]          LayerNorm-4             [-1, 197, 768]           1,536
[22:52:54.264417]             Linear-5            [-1, 197, 2304]       1,771,776
[22:52:54.264613]            Dropout-6         [-1, 12, 197, 197]               0
[22:52:54.264638]             Linear-7             [-1, 197, 768]         590,592
[22:52:54.264650]            Dropout-8             [-1, 197, 768]               0
[22:52:54.264660]          Attention-9             [-1, 197, 768]               0
[22:52:54.264669]          Identity-10             [-1, 197, 768]               0
[22:52:54.264680]         LayerNorm-11             [-1, 197, 768]           1,536
[22:52:54.264706]            Linear-12            [-1, 197, 3072]       2,362,368
[22:52:54.264733]              GELU-13            [-1, 197, 3072]               0
[22:52:54.264761]           Dropout-14            [-1, 197, 3072]               0
[22:52:54.264792]            Linear-15             [-1, 197, 768]       2,360,064
[22:52:54.264817]           Dropout-16             [-1, 197, 768]               0
[22:52:54.264842]               Mlp-17             [-1, 197, 768]               0
[22:52:54.264883]          Identity-18             [-1, 197, 768]               0
[22:52:54.264908]             Block-19             [-1, 197, 768]               0
[22:52:54.264924]         LayerNorm-20             [-1, 197, 768]           1,536
[22:52:54.264952]            Linear-21            [-1, 197, 2304]       1,771,776
[22:52:54.264970]           Dropout-22         [-1, 12, 197, 197]               0
[22:52:54.264993]            Linear-23             [-1, 197, 768]         590,592
[22:52:54.265005]           Dropout-24             [-1, 197, 768]               0
[22:52:54.265016]         Attention-25             [-1, 197, 768]               0
[22:52:54.265025]          DropPath-26             [-1, 197, 768]               0
[22:52:54.265049]         LayerNorm-27             [-1, 197, 768]           1,536
[22:52:54.265080]            Linear-28            [-1, 197, 3072]       2,362,368
[22:52:54.265108]              GELU-29            [-1, 197, 3072]               0
[22:52:54.265133]           Dropout-30            [-1, 197, 3072]               0
[22:52:54.265165]            Linear-31             [-1, 197, 768]       2,360,064
[22:52:54.265192]           Dropout-32             [-1, 197, 768]               0
[22:52:54.265217]               Mlp-33             [-1, 197, 768]               0
[22:52:54.265244]          DropPath-34             [-1, 197, 768]               0
[22:52:54.265268]             Block-35             [-1, 197, 768]               0
[22:52:54.265293]         LayerNorm-36             [-1, 197, 768]           1,536
[22:52:54.265304]            Linear-37            [-1, 197, 2304]       1,771,776
[22:52:54.265326]           Dropout-38         [-1, 12, 197, 197]               0
[22:52:54.265341]            Linear-39             [-1, 197, 768]         590,592
[22:52:54.265350]           Dropout-40             [-1, 197, 768]               0
[22:52:54.265359]         Attention-41             [-1, 197, 768]               0
[22:52:54.265368]          DropPath-42             [-1, 197, 768]               0
[22:52:54.265379]         LayerNorm-43             [-1, 197, 768]           1,536
[22:52:54.265390]            Linear-44            [-1, 197, 3072]       2,362,368
[22:52:54.265399]              GELU-45            [-1, 197, 3072]               0
[22:52:54.265408]           Dropout-46            [-1, 197, 3072]               0
[22:52:54.265418]            Linear-47             [-1, 197, 768]       2,360,064
[22:52:54.265438]           Dropout-48             [-1, 197, 768]               0
[22:52:54.265452]               Mlp-49             [-1, 197, 768]               0
[22:52:54.265476]          DropPath-50             [-1, 197, 768]               0
[22:52:54.265500]             Block-51             [-1, 197, 768]               0
[22:52:54.265525]         LayerNorm-52             [-1, 197, 768]           1,536
[22:52:54.265538]            Linear-53            [-1, 197, 2304]       1,771,776
[22:52:54.265549]           Dropout-54         [-1, 12, 197, 197]               0
[22:52:54.265560]            Linear-55             [-1, 197, 768]         590,592
[22:52:54.265570]           Dropout-56             [-1, 197, 768]               0
[22:52:54.265579]         Attention-57             [-1, 197, 768]               0
[22:52:54.265588]          DropPath-58             [-1, 197, 768]               0
[22:52:54.265598]         LayerNorm-59             [-1, 197, 768]           1,536
[22:52:54.265629]            Linear-60            [-1, 197, 3072]       2,362,368
[22:52:54.265650]              GELU-61            [-1, 197, 3072]               0
[22:52:54.265666]           Dropout-62            [-1, 197, 3072]               0
[22:52:54.265693]            Linear-63             [-1, 197, 768]       2,360,064
[22:52:54.265719]           Dropout-64             [-1, 197, 768]               0
[22:52:54.265746]               Mlp-65             [-1, 197, 768]               0
[22:52:54.265770]          DropPath-66             [-1, 197, 768]               0
[22:52:54.265797]             Block-67             [-1, 197, 768]               0
[22:52:54.265816]         LayerNorm-68             [-1, 197, 768]           1,536
[22:52:54.265839]            Linear-69            [-1, 197, 2304]       1,771,776
[22:52:54.265865]           Dropout-70         [-1, 12, 197, 197]               0
[22:52:54.265892]            Linear-71             [-1, 197, 768]         590,592
[22:52:54.265916]           Dropout-72             [-1, 197, 768]               0
[22:52:54.265961]         Attention-73             [-1, 197, 768]               0
[22:52:54.265979]          DropPath-74             [-1, 197, 768]               0
[22:52:54.265994]         LayerNorm-75             [-1, 197, 768]           1,536
[22:52:54.266005]            Linear-76            [-1, 197, 3072]       2,362,368
[22:52:54.266014]              GELU-77            [-1, 197, 3072]               0
[22:52:54.266023]           Dropout-78            [-1, 197, 3072]               0
[22:52:54.266033]            Linear-79             [-1, 197, 768]       2,360,064
[22:52:54.266042]           Dropout-80             [-1, 197, 768]               0
[22:52:54.266051]               Mlp-81             [-1, 197, 768]               0
[22:52:54.266060]          DropPath-82             [-1, 197, 768]               0
[22:52:54.266069]             Block-83             [-1, 197, 768]               0
[22:52:54.266079]         LayerNorm-84             [-1, 197, 768]           1,536
[22:52:54.266090]            Linear-85            [-1, 197, 2304]       1,771,776
[22:52:54.266100]           Dropout-86         [-1, 12, 197, 197]               0
[22:52:54.266110]            Linear-87             [-1, 197, 768]         590,592
[22:52:54.266119]           Dropout-88             [-1, 197, 768]               0
[22:52:54.266128]         Attention-89             [-1, 197, 768]               0
[22:52:54.266137]          DropPath-90             [-1, 197, 768]               0
[22:52:54.266147]         LayerNorm-91             [-1, 197, 768]           1,536
[22:52:54.266157]            Linear-92            [-1, 197, 3072]       2,362,368
[22:52:54.266166]              GELU-93            [-1, 197, 3072]               0
[22:52:54.266175]           Dropout-94            [-1, 197, 3072]               0
[22:52:54.266186]            Linear-95             [-1, 197, 768]       2,360,064
[22:52:54.266195]           Dropout-96             [-1, 197, 768]               0
[22:52:54.266203]               Mlp-97             [-1, 197, 768]               0
[22:52:54.266217]          DropPath-98             [-1, 197, 768]               0
[22:52:54.266238]             Block-99             [-1, 197, 768]               0
[22:52:54.266251]        LayerNorm-100             [-1, 197, 768]           1,536
[22:52:54.266261]           Linear-101            [-1, 197, 2304]       1,771,776
[22:52:54.266270]          Dropout-102         [-1, 12, 197, 197]               0
[22:52:54.266280]           Linear-103             [-1, 197, 768]         590,592
[22:52:54.266306]          Dropout-104             [-1, 197, 768]               0
[22:52:54.266331]        Attention-105             [-1, 197, 768]               0
[22:52:54.266421]         DropPath-106             [-1, 197, 768]               0
[22:52:54.266454]        LayerNorm-107             [-1, 197, 768]           1,536
[22:52:54.266480]           Linear-108            [-1, 197, 3072]       2,362,368
[22:52:54.266505]             GELU-109            [-1, 197, 3072]               0
[22:52:54.266530]          Dropout-110            [-1, 197, 3072]               0
[22:52:54.266555]           Linear-111             [-1, 197, 768]       2,360,064
[22:52:54.266568]          Dropout-112             [-1, 197, 768]               0
[22:52:54.266577]              Mlp-113             [-1, 197, 768]               0
[22:52:54.266591]         DropPath-114             [-1, 197, 768]               0
[22:52:54.266610]            Block-115             [-1, 197, 768]               0
[22:52:54.266633]        LayerNorm-116             [-1, 197, 768]           1,536
[22:52:54.266647]           Linear-117            [-1, 197, 2304]       1,771,776
[22:52:54.266673]          Dropout-118         [-1, 12, 197, 197]               0
[22:52:54.266693]           Linear-119             [-1, 197, 768]         590,592
[22:52:54.266712]          Dropout-120             [-1, 197, 768]               0
[22:52:54.266737]        Attention-121             [-1, 197, 768]               0
[22:52:54.266762]         DropPath-122             [-1, 197, 768]               0
[22:52:54.266780]        LayerNorm-123             [-1, 197, 768]           1,536
[22:52:54.266805]           Linear-124            [-1, 197, 3072]       2,362,368
[22:52:54.266827]             GELU-125            [-1, 197, 3072]               0
[22:52:54.266836]          Dropout-126            [-1, 197, 3072]               0
[22:52:54.266861]           Linear-127             [-1, 197, 768]       2,360,064
[22:52:54.266884]          Dropout-128             [-1, 197, 768]               0
[22:52:54.266910]              Mlp-129             [-1, 197, 768]               0
[22:52:54.266929]         DropPath-130             [-1, 197, 768]               0
[22:52:54.266953]            Block-131             [-1, 197, 768]               0
[22:52:54.266985]        LayerNorm-132             [-1, 197, 768]           1,536
[22:52:54.267018]           Linear-133            [-1, 197, 2304]       1,771,776
[22:52:54.267033]          Dropout-134         [-1, 12, 197, 197]               0
[22:52:54.267046]           Linear-135             [-1, 197, 768]         590,592
[22:52:54.267054]          Dropout-136             [-1, 197, 768]               0
[22:52:54.267081]        Attention-137             [-1, 197, 768]               0
[22:52:54.267106]         DropPath-138             [-1, 197, 768]               0
[22:52:54.267137]        LayerNorm-139             [-1, 197, 768]           1,536
[22:52:54.267169]           Linear-140            [-1, 197, 3072]       2,362,368
[22:52:54.267196]             GELU-141            [-1, 197, 3072]               0
[22:52:54.267221]          Dropout-142            [-1, 197, 3072]               0
[22:52:54.267253]           Linear-143             [-1, 197, 768]       2,360,064
[22:52:54.267280]          Dropout-144             [-1, 197, 768]               0
[22:52:54.267304]              Mlp-145             [-1, 197, 768]               0
[22:52:54.267327]         DropPath-146             [-1, 197, 768]               0
[22:52:54.267337]            Block-147             [-1, 197, 768]               0
[22:52:54.267349]        LayerNorm-148             [-1, 197, 768]           1,536
[22:52:54.267361]           Linear-149            [-1, 197, 2304]       1,771,776
[22:52:54.267370]          Dropout-150         [-1, 12, 197, 197]               0
[22:52:54.267380]           Linear-151             [-1, 197, 768]         590,592
[22:52:54.267389]          Dropout-152             [-1, 197, 768]               0
[22:52:54.267398]        Attention-153             [-1, 197, 768]               0
[22:52:54.267425]         DropPath-154             [-1, 197, 768]               0
[22:52:54.267456]        LayerNorm-155             [-1, 197, 768]           1,536
[22:52:54.267485]           Linear-156            [-1, 197, 3072]       2,362,368
[22:52:54.267510]             GELU-157            [-1, 197, 3072]               0
[22:52:54.267533]          Dropout-158            [-1, 197, 3072]               0
[22:52:54.267547]           Linear-159             [-1, 197, 768]       2,360,064
[22:52:54.267556]          Dropout-160             [-1, 197, 768]               0
[22:52:54.267565]              Mlp-161             [-1, 197, 768]               0
[22:52:54.267575]         DropPath-162             [-1, 197, 768]               0
[22:52:54.267584]            Block-163             [-1, 197, 768]               0
[22:52:54.267595]        LayerNorm-164             [-1, 197, 768]           1,536
[22:52:54.267610]           Linear-165            [-1, 197, 2304]       1,771,776
[22:52:54.267637]          Dropout-166         [-1, 12, 197, 197]               0
[22:52:54.267667]           Linear-167             [-1, 197, 768]         590,592
[22:52:54.267691]          Dropout-168             [-1, 197, 768]               0
[22:52:54.267718]        Attention-169             [-1, 197, 768]               0
[22:52:54.267743]         DropPath-170             [-1, 197, 768]               0
[22:52:54.267775]        LayerNorm-171             [-1, 197, 768]           1,536
[22:52:54.267791]           Linear-172            [-1, 197, 3072]       2,362,368
[22:52:54.267802]             GELU-173            [-1, 197, 3072]               0
[22:52:54.267812]          Dropout-174            [-1, 197, 3072]               0
[22:52:54.267822]           Linear-175             [-1, 197, 768]       2,360,064
[22:52:54.267832]          Dropout-176             [-1, 197, 768]               0
[22:52:54.267841]              Mlp-177             [-1, 197, 768]               0
[22:52:54.267849]         DropPath-178             [-1, 197, 768]               0
[22:52:54.267859]            Block-179             [-1, 197, 768]               0
[22:52:54.267869]        LayerNorm-180             [-1, 197, 768]           1,536
[22:52:54.267880]           Linear-181            [-1, 197, 2304]       1,771,776
[22:52:54.267889]          Dropout-182         [-1, 12, 197, 197]               0
[22:52:54.267901]           Linear-183             [-1, 197, 768]         590,592
[22:52:54.267910]          Dropout-184             [-1, 197, 768]               0
[22:52:54.267919]        Attention-185             [-1, 197, 768]               0
[22:52:54.267928]         DropPath-186             [-1, 197, 768]               0
[22:52:54.267958]        LayerNorm-187             [-1, 197, 768]           1,536
[22:52:54.267992]           Linear-188            [-1, 197, 3072]       2,362,368
[22:52:54.268019]             GELU-189            [-1, 197, 3072]               0
[22:52:54.268046]          Dropout-190            [-1, 197, 3072]               0
[22:52:54.268076]           Linear-191             [-1, 197, 768]       2,360,064
[22:52:54.268101]          Dropout-192             [-1, 197, 768]               0
[22:52:54.268127]              Mlp-193             [-1, 197, 768]               0
[22:52:54.268152]         DropPath-194             [-1, 197, 768]               0
[22:52:54.268180]            Block-195             [-1, 197, 768]               0
[22:52:54.268213]        LayerNorm-196                  [-1, 768]           1,536
[22:52:54.268227]           Linear-197                    [-1, 2]           1,538
[22:52:54.268303] ================================================================
[22:52:54.268312] Total params: 85,648,130
[22:52:54.268317] Trainable params: 85,648,130
[22:52:54.268353] Non-trainable params: 0
[22:52:54.268356] ----------------------------------------------------------------
[22:52:54.268393] Input size (MB): 0.57
[22:52:54.268402] Forward/backward pass size (MB): 406.23
[22:52:54.268407] Params size (MB): 326.72
…
