…
               Normalize(mean=[0.4025145471096039, 0.3492843806743622, 0.29918381571769714], std=[0.2830813229084015, 0.25276339054107666, 0.24832025170326233])
           )
[02:48:11.535186] Sampler_train = <torch.utils.data.distributed.DistributedSampler object at 0x7a26f8bc2f40>
[02:48:11.535218] [INFO]log dir: %./src/fsfm-3c/finuetune/cross_dataset_unseen_DiFF/output_finetune_cpu_test_diff/
[02:48:12.357492] ----------------------------------------------------------------
[02:48:12.358043]         Layer (type)               Output Shape         Param #
[02:48:12.358049] ================================================================
[02:48:12.359238]             Conv2d-1          [-1, 384, 14, 14]         295,296
[02:48:12.359302]         PatchEmbed-2             [-1, 196, 384]               0
[02:48:12.359319]            Dropout-3             [-1, 197, 384]               0
[02:48:12.359345]          LayerNorm-4             [-1, 197, 384]             768
[02:48:12.359360]             Linear-5            [-1, 197, 1152]         443,520
[02:48:12.359374]            Dropout-6         [-1, 12, 197, 197]               0
[02:48:12.359389]             Linear-7             [-1, 197, 384]         147,840
[02:48:12.359401]            Dropout-8             [-1, 197, 384]               0
[02:48:12.359413]          Attention-9             [-1, 197, 384]               0
[02:48:12.359425]          Identity-10             [-1, 197, 384]               0
[02:48:12.359487]         LayerNorm-11             [-1, 197, 384]             768
[02:48:12.359501]            Linear-12            [-1, 197, 1536]         591,360
[02:48:12.359513]              GELU-13            [-1, 197, 1536]               0
[02:48:12.359525]           Dropout-14            [-1, 197, 1536]               0
[02:48:12.359539]            Linear-15             [-1, 197, 384]         590,208
[02:48:12.359551]           Dropout-16             [-1, 197, 384]               0
[02:48:12.359563]               Mlp-17             [-1, 197, 384]               0
[02:48:12.359574]          Identity-18             [-1, 197, 384]               0
[02:48:12.359592]             Block-19             [-1, 197, 384]               0
[02:48:12.359606]         LayerNorm-20             [-1, 197, 384]             768
[02:48:12.359619]            Linear-21            [-1, 197, 1152]         443,520
[02:48:12.359631]           Dropout-22         [-1, 12, 197, 197]               0
[02:48:12.359644]            Linear-23             [-1, 197, 384]         147,840
[02:48:12.359656]           Dropout-24             [-1, 197, 384]               0
[02:48:12.359667]         Attention-25             [-1, 197, 384]               0
[02:48:12.359680]          DropPath-26             [-1, 197, 384]               0
[02:48:12.359695]         LayerNorm-27             [-1, 197, 384]             768
[02:48:12.359708]            Linear-28            [-1, 197, 1536]         591,360
[02:48:12.359720]              GELU-29            [-1, 197, 1536]               0
[02:48:12.359731]           Dropout-30            [-1, 197, 1536]               0
[02:48:12.359745]            Linear-31             [-1, 197, 384]         590,208
[02:48:12.359756]           Dropout-32             [-1, 197, 384]               0
[02:48:12.359768]               Mlp-33             [-1, 197, 384]               0
[02:48:12.359779]          DropPath-34             [-1, 197, 384]               0
[02:48:12.359792]             Block-35             [-1, 197, 384]               0
[02:48:12.359805]         LayerNorm-36             [-1, 197, 384]             768
[02:48:12.359818]            Linear-37            [-1, 197, 1152]         443,520
[02:48:12.359830]           Dropout-38         [-1, 12, 197, 197]               0
[02:48:12.359843]            Linear-39             [-1, 197, 384]         147,840
[02:48:12.359855]           Dropout-40             [-1, 197, 384]               0
[02:48:12.359866]         Attention-41             [-1, 197, 384]               0
[02:48:12.359878]          DropPath-42             [-1, 197, 384]               0
[02:48:12.359891]         LayerNorm-43             [-1, 197, 384]             768
[02:48:12.359904]            Linear-44            [-1, 197, 1536]         591,360
[02:48:12.359916]              GELU-45            [-1, 197, 1536]               0
[02:48:12.359927]           Dropout-46            [-1, 197, 1536]               0
[02:48:12.359940]            Linear-47             [-1, 197, 384]         590,208
[02:48:12.359952]           Dropout-48             [-1, 197, 384]               0
[02:48:12.359963]               Mlp-49             [-1, 197, 384]               0
[02:48:12.359975]          DropPath-50             [-1, 197, 384]               0
[02:48:12.359987]             Block-51             [-1, 197, 384]               0
[02:48:12.360000]         LayerNorm-52             [-1, 197, 384]             768
[02:48:12.360013]            Linear-53            [-1, 197, 1152]         443,520
[02:48:12.360025]           Dropout-54         [-1, 12, 197, 197]               0
[02:48:12.360038]            Linear-55             [-1, 197, 384]         147,840
[02:48:12.360049]           Dropout-56             [-1, 197, 384]               0
[02:48:12.360061]         Attention-57             [-1, 197, 384]               0
[02:48:12.360073]          DropPath-58             [-1, 197, 384]               0
[02:48:12.360087]         LayerNorm-59             [-1, 197, 384]             768
[02:48:12.360100]            Linear-60            [-1, 197, 1536]         591,360
[02:48:12.360112]              GELU-61            [-1, 197, 1536]               0
[02:48:12.360123]           Dropout-62            [-1, 197, 1536]               0
[02:48:12.360136]            Linear-63             [-1, 197, 384]         590,208
[02:48:12.360148]           Dropout-64             [-1, 197, 384]               0
[02:48:12.360159]               Mlp-65             [-1, 197, 384]               0
[02:48:12.360170]          DropPath-66             [-1, 197, 384]               0
[02:48:12.360182]             Block-67             [-1, 197, 384]               0
[02:48:12.360195]         LayerNorm-68             [-1, 197, 384]             768
[02:48:12.360208]            Linear-69            [-1, 197, 1152]         443,520
[02:48:12.360220]           Dropout-70         [-1, 12, 197, 197]               0
[02:48:12.360233]            Linear-71             [-1, 197, 384]         147,840
[02:48:12.360839]           Dropout-72             [-1, 197, 384]               0
[02:48:12.360861]         Attention-73             [-1, 197, 384]               0
[02:48:12.360874]          DropPath-74             [-1, 197, 384]               0
[02:48:12.360896]         LayerNorm-75             [-1, 197, 384]             768
[02:48:12.360910]            Linear-76            [-1, 197, 1536]         591,360
[02:48:12.360922]              GELU-77            [-1, 197, 1536]               0
[02:48:12.360934]           Dropout-78            [-1, 197, 1536]               0
[02:48:12.360947]            Linear-79             [-1, 197, 384]         590,208
[02:48:12.360960]           Dropout-80             [-1, 197, 384]               0
[02:48:12.360974]               Mlp-81             [-1, 197, 384]               0
[02:48:12.360993]          DropPath-82             [-1, 197, 384]               0
[02:48:12.361011]             Block-83             [-1, 197, 384]               0
[02:48:12.361034]         LayerNorm-84             [-1, 197, 384]             768
[02:48:12.361055]            Linear-85            [-1, 197, 1152]         443,520
[02:48:12.361073]           Dropout-86         [-1, 12, 197, 197]               0
[02:48:12.361087]            Linear-87             [-1, 197, 384]         147,840
[02:48:12.361100]           Dropout-88             [-1, 197, 384]               0
[02:48:12.361112]         Attention-89             [-1, 197, 384]               0
[02:48:12.361123]          DropPath-90             [-1, 197, 384]               0
[02:48:12.361138]         LayerNorm-91             [-1, 197, 384]             768
[02:48:12.361151]            Linear-92            [-1, 197, 1536]         591,360
[02:48:12.361163]              GELU-93            [-1, 197, 1536]               0
[02:48:12.361174]           Dropout-94            [-1, 197, 1536]               0
[02:48:12.361188]            Linear-95             [-1, 197, 384]         590,208
[02:48:12.361200]           Dropout-96             [-1, 197, 384]               0
[02:48:12.361211]               Mlp-97             [-1, 197, 384]               0
[02:48:12.361223]          DropPath-98             [-1, 197, 384]               0
[02:48:12.361235]             Block-99             [-1, 197, 384]               0
[02:48:12.361249]        LayerNorm-100             [-1, 197, 384]             768
[02:48:12.361262]           Linear-101            [-1, 197, 1152]         443,520
[02:48:12.361274]          Dropout-102         [-1, 12, 197, 197]               0
[02:48:12.361287]           Linear-103             [-1, 197, 384]         147,840
[02:48:12.361300]          Dropout-104             [-1, 197, 384]               0
[02:48:12.361312]        Attention-105             [-1, 197, 384]               0
[02:48:12.361324]         DropPath-106             [-1, 197, 384]               0
[02:48:12.361337]        LayerNorm-107             [-1, 197, 384]             768
[02:48:12.361350]           Linear-108            [-1, 197, 1536]         591,360
[02:48:12.361362]             GELU-109            [-1, 197, 1536]               0
[02:48:12.361374]          Dropout-110            [-1, 197, 1536]               0
[02:48:12.361387]           Linear-111             [-1, 197, 384]         590,208
[02:48:12.361399]          Dropout-112             [-1, 197, 384]               0
[02:48:12.361410]              Mlp-113             [-1, 197, 384]               0
[02:48:12.361422]         DropPath-114             [-1, 197, 384]               0
[02:48:12.361434]            Block-115             [-1, 197, 384]               0
[02:48:12.361447]        LayerNorm-116             [-1, 197, 384]             768
[02:48:12.361460]           Linear-117            [-1, 197, 1152]         443,520
[02:48:12.361472]          Dropout-118         [-1, 12, 197, 197]               0
[02:48:12.361484]           Linear-119             [-1, 197, 384]         147,840
[02:48:12.361497]          Dropout-120             [-1, 197, 384]               0
[02:48:12.361509]        Attention-121             [-1, 197, 384]               0
[02:48:12.361521]         DropPath-122             [-1, 197, 384]               0
[02:48:12.361534]        LayerNorm-123             [-1, 197, 384]             768
[02:48:12.361547]           Linear-124            [-1, 197, 1536]         591,360
[02:48:12.361559]             GELU-125            [-1, 197, 1536]               0
[02:48:12.361570]          Dropout-126            [-1, 197, 1536]               0
[02:48:12.361583]           Linear-127             [-1, 197, 384]         590,208
[02:48:12.361595]          Dropout-128             [-1, 197, 384]               0
[02:48:12.361606]              Mlp-129             [-1, 197, 384]               0
[02:48:12.361619]         DropPath-130             [-1, 197, 384]               0
[02:48:12.361630]            Block-131             [-1, 197, 384]               0
[02:48:12.361643]        LayerNorm-132             [-1, 197, 384]             768
[02:48:12.361657]           Linear-133            [-1, 197, 1152]         443,520
[02:48:12.361669]          Dropout-134         [-1, 12, 197, 197]               0
[02:48:12.361681]           Linear-135             [-1, 197, 384]         147,840
[02:48:12.361693]          Dropout-136             [-1, 197, 384]               0
[02:48:12.361705]        Attention-137             [-1, 197, 384]               0
[02:48:12.361717]         DropPath-138             [-1, 197, 384]               0
[02:48:12.361730]        LayerNorm-139             [-1, 197, 384]             768
[02:48:12.361743]           Linear-140            [-1, 197, 1536]         591,360
[02:48:12.361755]             GELU-141            [-1, 197, 1536]               0
[02:48:12.361767]          Dropout-142            [-1, 197, 1536]               0
[02:48:12.361780]           Linear-143             [-1, 197, 384]         590,208
[02:48:12.361792]          Dropout-144             [-1, 197, 384]               0
[02:48:12.361804]              Mlp-145             [-1, 197, 384]               0
[02:48:12.361815]         DropPath-146             [-1, 197, 384]               0
[02:48:12.361826]            Block-147             [-1, 197, 384]               0
[02:48:12.361839]        LayerNorm-148             [-1, 197, 384]             768
[02:48:12.361852]           Linear-149            [-1, 197, 1152]         443,520
[02:48:12.361864]          Dropout-150         [-1, 12, 197, 197]               0
[02:48:12.361877]           Linear-151             [-1, 197, 384]         147,840
[02:48:12.361889]          Dropout-152             [-1, 197, 384]               0
[02:48:12.361900]        Attention-153             [-1, 197, 384]               0
[02:48:12.361911]         DropPath-154             [-1, 197, 384]               0
[02:48:12.361925]        LayerNorm-155             [-1, 197, 384]             768
[02:48:12.361937]           Linear-156            [-1, 197, 1536]         591,360
[02:48:12.361949]             GELU-157            [-1, 197, 1536]               0
[02:48:12.361960]          Dropout-158            [-1, 197, 1536]               0
[02:48:12.361974]           Linear-159             [-1, 197, 384]         590,208
[02:48:12.361986]          Dropout-160             [-1, 197, 384]               0
[02:48:12.361998]              Mlp-161             [-1, 197, 384]               0
[02:48:12.362009]         DropPath-162             [-1, 197, 384]               0
[02:48:12.362021]            Block-163             [-1, 197, 384]               0
[02:48:12.362034]        LayerNorm-164             [-1, 197, 384]             768
[02:48:12.362047]           Linear-165            [-1, 197, 1152]         443,520
[02:48:12.362059]          Dropout-166         [-1, 12, 197, 197]               0
[02:48:12.362072]           Linear-167             [-1, 197, 384]         147,840
[02:48:12.362083]          Dropout-168             [-1, 197, 384]               0
[02:48:12.362095]        Attention-169             [-1, 197, 384]               0
[02:48:12.362107]         DropPath-170             [-1, 197, 384]               0
[02:48:12.362120]        LayerNorm-171             [-1, 197, 384]             768
[02:48:12.362199]           Linear-172            [-1, 197, 1536]         591,360
[02:48:12.362217]             GELU-173            [-1, 197, 1536]               0
[02:48:12.362230]          Dropout-174            [-1, 197, 1536]               0
[02:48:12.362244]           Linear-175             [-1, 197, 384]         590,208
[02:48:12.362256]          Dropout-176             [-1, 197, 384]               0
[02:48:12.362269]              Mlp-177             [-1, 197, 384]               0
[02:48:12.362280]         DropPath-178             [-1, 197, 384]               0
[02:48:12.362292]            Block-179             [-1, 197, 384]               0
[02:48:12.362307]        LayerNorm-180             [-1, 197, 384]             768
[02:48:12.362320]           Linear-181            [-1, 197, 1152]         443,520
[02:48:12.362332]          Dropout-182         [-1, 12, 197, 197]               0
[02:48:12.362345]           Linear-183             [-1, 197, 384]         147,840
[02:48:12.362357]          Dropout-184             [-1, 197, 384]               0
[02:48:12.362369]        Attention-185             [-1, 197, 384]               0
[02:48:12.362381]         DropPath-186             [-1, 197, 384]               0
[02:48:12.362402]        LayerNorm-187             [-1, 197, 384]             768
[02:48:12.362422]           Linear-188            [-1, 197, 1536]         591,360
[02:48:12.362438]             GELU-189            [-1, 197, 1536]               0
[02:48:12.362450]          Dropout-190            [-1, 197, 1536]               0
[02:48:12.362464]           Linear-191             [-1, 197, 384]         590,208
[02:48:12.362476]          Dropout-192             [-1, 197, 384]               0
[02:48:12.362487]              Mlp-193             [-1, 197, 384]               0
[02:48:12.362514]         DropPath-194             [-1, 197, 384]               0
[02:48:12.362539]            Block-195             [-1, 197, 384]               0
[02:48:12.362556]        LayerNorm-196                  [-1, 384]             768
[02:48:12.362569]           Linear-197                    [-1, 2]             770
[02:48:12.362649] ================================================================
[02:48:12.362657] Total params: 21,590,402
[02:48:12.362662] Trainable params: 21,590,402
[02:48:12.363307] Non-trainable params: 0
[02:48:12.363324] ----------------------------------------------------------------
[02:48:12.363333] Input size (MB): 0.57
[02:48:12.363341] Forward/backward pass size (MB): 224.44
[02:48:12.363346] Params size (MB): 82.36
…
