…
ttn.qkv.bias', 'decoder_blocks.7.attn.proj.weight', 'decoder_blocks.7.attn.proj.bias', 'decoder_blocks.7.norm2.weight', 'decoder_blocks.7.norm2.bias', 'decoder_blocks.7.mlp.fc1.weight', 'decoder_blocks.7.mlp.fc1.bias', 'decoder_blocks.7.mlp.fc2.weight', 'decoder_blocks.7.mlp.fc2.bias', 'decoder_norm.weight', 'decoder_norm.bias', 'decoder_pred.weight', 'decoder_pred.bias'])
----------------------------------------------------------------
        Layer (type)               Output Shape         Param #
================================================================
            Conv2d-1          [-1, 768, 14, 14]         590,592
        PatchEmbed-2             [-1, 196, 768]               0
         LayerNorm-3              [-1, 50, 768]           1,536
            Linear-4             [-1, 50, 2304]       1,771,776
           Dropout-5           [-1, 12, 50, 50]               0
            Linear-6              [-1, 50, 768]         590,592
           Dropout-7              [-1, 50, 768]               0
         Attention-8              [-1, 50, 768]               0
          Identity-9              [-1, 50, 768]               0
        LayerNorm-10              [-1, 50, 768]           1,536
           Linear-11             [-1, 50, 3072]       2,362,368
             GELU-12             [-1, 50, 3072]               0
          Dropout-13             [-1, 50, 3072]               0
           Linear-14              [-1, 50, 768]       2,360,064
          Dropout-15              [-1, 50, 768]               0
              Mlp-16              [-1, 50, 768]               0
         Identity-17              [-1, 50, 768]               0
            Block-18              [-1, 50, 768]               0
        LayerNorm-19              [-1, 50, 768]           1,536
           Linear-20             [-1, 50, 2304]       1,771,776
          Dropout-21           [-1, 12, 50, 50]               0
           Linear-22              [-1, 50, 768]         590,592
          Dropout-23              [-1, 50, 768]               0
        Attention-24              [-1, 50, 768]               0
         Identity-25              [-1, 50, 768]               0
        LayerNorm-26              [-1, 50, 768]           1,536
           Linear-27             [-1, 50, 3072]       2,362,368
             GELU-28             [-1, 50, 3072]               0
          Dropout-29             [-1, 50, 3072]               0
           Linear-30              [-1, 50, 768]       2,360,064
          Dropout-31              [-1, 50, 768]               0
              Mlp-32              [-1, 50, 768]               0
         Identity-33              [-1, 50, 768]               0
            Block-34              [-1, 50, 768]               0
        LayerNorm-35              [-1, 50, 768]           1,536
           Linear-36             [-1, 50, 2304]       1,771,776
          Dropout-37           [-1, 12, 50, 50]               0
           Linear-38              [-1, 50, 768]         590,592
          Dropout-39              [-1, 50, 768]               0
        Attention-40              [-1, 50, 768]               0
         Identity-41              [-1, 50, 768]               0
        LayerNorm-42              [-1, 50, 768]           1,536
           Linear-43             [-1, 50, 3072]       2,362,368
             GELU-44             [-1, 50, 3072]               0
          Dropout-45             [-1, 50, 3072]               0
           Linear-46              [-1, 50, 768]       2,360,064
          Dropout-47              [-1, 50, 768]               0
              Mlp-48              [-1, 50, 768]               0
         Identity-49              [-1, 50, 768]               0
            Block-50              [-1, 50, 768]               0
        LayerNorm-51              [-1, 50, 768]           1,536
           Linear-52             [-1, 50, 2304]       1,771,776
          Dropout-53           [-1, 12, 50, 50]               0
           Linear-54              [-1, 50, 768]         590,592
          Dropout-55              [-1, 50, 768]               0
        Attention-56              [-1, 50, 768]               0
         Identity-57              [-1, 50, 768]               0
        LayerNorm-58              [-1, 50, 768]           1,536
           Linear-59             [-1, 50, 3072]       2,362,368
             GELU-60             [-1, 50, 3072]               0
          Dropout-61             [-1, 50, 3072]               0
           Linear-62              [-1, 50, 768]       2,360,064
          Dropout-63              [-1, 50, 768]               0
              Mlp-64              [-1, 50, 768]               0
         Identity-65              [-1, 50, 768]               0
            Block-66              [-1, 50, 768]               0
        LayerNorm-67              [-1, 50, 768]           1,536
           Linear-68             [-1, 50, 2304]       1,771,776
          Dropout-69           [-1, 12, 50, 50]               0
           Linear-70              [-1, 50, 768]         590,592
          Dropout-71              [-1, 50, 768]               0
        Attention-72              [-1, 50, 768]               0
         Identity-73              [-1, 50, 768]               0
        LayerNorm-74              [-1, 50, 768]           1,536
           Linear-75             [-1, 50, 3072]       2,362,368
             GELU-76             [-1, 50, 3072]               0
          Dropout-77             [-1, 50, 3072]               0
           Linear-78              [-1, 50, 768]       2,360,064
          Dropout-79              [-1, 50, 768]               0
              Mlp-80              [-1, 50, 768]               0
         Identity-81              [-1, 50, 768]               0
            Block-82              [-1, 50, 768]               0
        LayerNorm-83              [-1, 50, 768]           1,536
           Linear-84             [-1, 50, 2304]       1,771,776
          Dropout-85           [-1, 12, 50, 50]               0
           Linear-86              [-1, 50, 768]         590,592
          Dropout-87              [-1, 50, 768]               0
        Attention-88              [-1, 50, 768]               0
         Identity-89              [-1, 50, 768]               0
        LayerNorm-90              [-1, 50, 768]           1,536
           Linear-91             [-1, 50, 3072]       2,362,368
             GELU-92             [-1, 50, 3072]               0
          Dropout-93             [-1, 50, 3072]               0
           Linear-94              [-1, 50, 768]       2,360,064
          Dropout-95              [-1, 50, 768]               0
              Mlp-96              [-1, 50, 768]               0
         Identity-97              [-1, 50, 768]               0
            Block-98              [-1, 50, 768]               0
        LayerNorm-99              [-1, 50, 768]           1,536
          Linear-100             [-1, 50, 2304]       1,771,776
         Dropout-101           [-1, 12, 50, 50]               0
          Linear-102              [-1, 50, 768]         590,592
         Dropout-103              [-1, 50, 768]               0
       Attention-104              [-1, 50, 768]               0
        Identity-105              [-1, 50, 768]               0
       LayerNorm-106              [-1, 50, 768]           1,536
          Linear-107             [-1, 50, 3072]       2,362,368
            GELU-108             [-1, 50, 3072]               0
         Dropout-109             [-1, 50, 3072]               0
          Linear-110              [-1, 50, 768]       2,360,064
         Dropout-111              [-1, 50, 768]               0
             Mlp-112              [-1, 50, 768]               0
        Identity-113              [-1, 50, 768]               0
           Block-114              [-1, 50, 768]               0
       LayerNorm-115              [-1, 50, 768]           1,536
          Linear-116             [-1, 50, 2304]       1,771,776
         Dropout-117           [-1, 12, 50, 50]               0
          Linear-118              [-1, 50, 768]         590,592
         Dropout-119              [-1, 50, 768]               0
       Attention-120              [-1, 50, 768]               0
        Identity-121              [-1, 50, 768]               0
       LayerNorm-122              [-1, 50, 768]           1,536
          Linear-123             [-1, 50, 3072]       2,362,368
            GELU-124             [-1, 50, 3072]               0
         Dropout-125             [-1, 50, 3072]               0
          Linear-126              [-1, 50, 768]       2,360,064
         Dropout-127              [-1, 50, 768]               0
             Mlp-128              [-1, 50, 768]               0
        Identity-129              [-1, 50, 768]               0
           Block-130              [-1, 50, 768]               0
       LayerNorm-131              [-1, 50, 768]           1,536
          Linear-132             [-1, 50, 2304]       1,771,776
         Dropout-133           [-1, 12, 50, 50]               0
          Linear-134              [-1, 50, 768]         590,592
         Dropout-135              [-1, 50, 768]               0
       Attention-136              [-1, 50, 768]               0
        Identity-137              [-1, 50, 768]               0
       LayerNorm-138              [-1, 50, 768]           1,536
          Linear-139             [-1, 50, 3072]       2,362,368
            GELU-140             [-1, 50, 3072]               0
         Dropout-141             [-1, 50, 3072]               0
          Linear-142              [-1, 50, 768]       2,360,064
         Dropout-143              [-1, 50, 768]               0
             Mlp-144              [-1, 50, 768]               0
        Identity-145              [-1, 50, 768]               0
           Block-146              [-1, 50, 768]               0
       LayerNorm-147              [-1, 50, 768]           1,536
          Linear-148             [-1, 50, 2304]       1,771,776
         Dropout-149           [-1, 12, 50, 50]               0
          Linear-150              [-1, 50, 768]         590,592
         Dropout-151              [-1, 50, 768]               0
       Attention-152              [-1, 50, 768]               0
        Identity-153              [-1, 50, 768]               0
       LayerNorm-154              [-1, 50, 768]           1,536
          Linear-155             [-1, 50, 3072]       2,362,368
            GELU-156             [-1, 50, 3072]               0
         Dropout-157             [-1, 50, 3072]               0
          Linear-158              [-1, 50, 768]       2,360,064
         Dropout-159              [-1, 50, 768]               0
             Mlp-160              [-1, 50, 768]               0
        Identity-161              [-1, 50, 768]               0
           Block-162              [-1, 50, 768]               0
       LayerNorm-163              [-1, 50, 768]           1,536
          Linear-164             [-1, 50, 2304]       1,771,776
         Dropout-165           [-1, 12, 50, 50]               0
          Linear-166              [-1, 50, 768]         590,592
         Dropout-167              [-1, 50, 768]               0
       Attention-168              [-1, 50, 768]               0
        Identity-169              [-1, 50, 768]               0
       LayerNorm-170              [-1, 50, 768]           1,536
          Linear-171             [-1, 50, 3072]       2,362,368
            GELU-172             [-1, 50, 3072]               0
         Dropout-173             [-1, 50, 3072]               0
          Linear-174              [-1, 50, 768]       2,360,064
         Dropout-175              [-1, 50, 768]               0
             Mlp-176              [-1, 50, 768]               0
        Identity-177              [-1, 50, 768]               0
           Block-178              [-1, 50, 768]               0
       LayerNorm-179              [-1, 50, 768]           1,536
          Linear-180             [-1, 50, 2304]       1,771,776
         Dropout-181           [-1, 12, 50, 50]               0
          Linear-182              [-1, 50, 768]         590,592
         Dropout-183              [-1, 50, 768]               0
       Attention-184              [-1, 50, 768]               0
        Identity-185              [-1, 50, 768]               0
       LayerNorm-186              [-1, 50, 768]           1,536
          Linear-187             [-1, 50, 3072]       2,362,368
            GELU-188             [-1, 50, 3072]               0
         Dropout-189             [-1, 50, 3072]               0
          Linear-190              [-1, 50, 768]       2,360,064
         Dropout-191              [-1, 50, 768]               0
             Mlp-192              [-1, 50, 768]               0
        Identity-193              [-1, 50, 768]               0
           Block-194              [-1, 50, 768]               0
       LayerNorm-195              [-1, 50, 768]           1,536
          Linear-196              [-1, 50, 768]         590,592
       LayerNorm-197             [-1, 197, 768]           1,536
          Linear-198            [-1, 197, 2304]       1,771,776
         Dropout-199         [-1, 16, 197, 197]               0
          Linear-200             [-1, 197, 768]         590,592
         Dropout-201             [-1, 197, 768]               0
       Attention-202             [-1, 197, 768]               0
        Identity-203             [-1, 197, 768]               0
       LayerNorm-204             [-1, 197, 768]           1,536
          Linear-205            [-1, 197, 3072]       2,362,368
            GELU-206            [-1, 197, 3072]               0
         Dropout-207            [-1, 197, 3072]               0
          Linear-208             [-1, 197, 768]       2,360,064
         Dropout-209             [-1, 197, 768]               0
             Mlp-210             [-1, 197, 768]               0
        Identity-211             [-1, 197, 768]               0
           Block-212             [-1, 197, 768]               0
       LayerNorm-213             [-1, 197, 768]           1,536
          Linear-214            [-1, 197, 2304]       1,771,776
         Dropout-215         [-1, 16, 197, 197]               0
          Linear-216             [-1, 197, 768]         590,592
         Dropout-217             [-1, 197, 768]               0
       Attention-218             [-1, 197, 768]               0
        Identity-219             [-1, 197, 768]               0
       LayerNorm-220             [-1, 197, 768]           1,536
          Linear-221            [-1, 197, 3072]       2,362,368
            GELU-222            [-1, 197, 3072]               0
         Dropout-223            [-1, 197, 3072]               0
          Linear-224             [-1, 197, 768]       2,360,064
         Dropout-225             [-1, 197, 768]               0
             Mlp-226             [-1, 197, 768]               0
        Identity-227             [-1, 197, 768]               0
           Block-228             [-1, 197, 768]               0
       LayerNorm-229             [-1, 197, 768]           1,536
          Linear-230             [-1, 197, 768]         590,592
          Linear-231                 [-1, 4096]       3,149,824
       LayerNorm-232                 [-1, 4096]           8,192
            ReLU-233                 [-1, 4096]               0
          Linear-234                  [-1, 256]       1,048,832
         BYOLMLP-235                  [-1, 256]               0
          Linear-236                 [-1, 4096]       1,052,672
       LayerNorm-237                 [-1, 4096]           8,192
            ReLU-238                 [-1, 4096]               0
          Linear-239                  [-1, 256]       1,048,832
         BYOLMLP-240                  [-1, 256]               0
          Linear-241             [-1, 197, 512]         393,728
       LayerNorm-242             [-1, 197, 512]           1,024
          Linear-243            [-1, 197, 1536]         787,968
         Dropout-244         [-1, 16, 197, 197]               0
          Linear-245             [-1, 197, 512]         262,656
         Dropout-246             [-1, 197, 512]               0
       Attention-247             [-1, 197, 512]               0
        Identity-248             [-1, 197, 512]               0
       LayerNorm-249             [-1, 197, 512]           1,024
          Linear-250            [-1, 197, 2048]       1,050,624
            GELU-251            [-1, 197, 2048]               0
         Dropout-252            [-1, 197, 2048]               0
          Linear-253             [-1, 197, 512]       1,049,088
         Dropout-254             [-1, 197, 512]               0
             Mlp-255             [-1, 197, 512]               0
        Identity-256             [-1, 197, 512]               0
           Block-257             [-1, 197, 512]               0
       LayerNorm-258             [-1, 197, 512]           1,024
          Linear-259            [-1, 197, 1536]         787,968
         Dropout-260         [-1, 16, 197, 197]               0
          Linear-261             [-1, 197, 512]         262,656
         Dropout-262             [-1, 197, 512]               0
       Attention-263             [-1, 197, 512]               0
        Identity-264             [-1, 197, 512]               0
       LayerNorm-265             [-1, 197, 512]           1,024
          Linear-266            [-1, 197, 2048]       1,050,624
            GELU-267            [-1, 197, 2048]               0
         Dropout-268            [-1, 197, 2048]               0
          Linear-269             [-1, 197, 512]       1,049,088
         Dropout-270             [-1, 197, 512]               0
             Mlp-271             [-1, 197, 512]               0
        Identity-272             [-1, 197, 512]               0
           Block-273             [-1, 197, 512]               0
       LayerNorm-274             [-1, 197, 512]           1,024
          Linear-275            [-1, 197, 1536]         787,968
         Dropout-276         [-1, 16, 197, 197]               0
          Linear-277             [-1, 197, 512]         262,656
         Dropout-278             [-1, 197, 512]               0
       Attention-279             [-1, 197, 512]               0
        Identity-280             [-1, 197, 512]               0
       LayerNorm-281             [-1, 197, 512]           1,024
          Linear-282            [-1, 197, 2048]       1,050,624
            GELU-283            [-1, 197, 2048]               0
         Dropout-284            [-1, 197, 2048]               0
          Linear-285             [-1, 197, 512]       1,049,088
         Dropout-286             [-1, 197, 512]               0
             Mlp-287             [-1, 197, 512]               0
        Identity-288             [-1, 197, 512]               0
           Block-289             [-1, 197, 512]               0
       LayerNorm-290             [-1, 197, 512]           1,024
          Linear-291            [-1, 197, 1536]         787,968
         Dropout-292         [-1, 16, 197, 197]               0
          Linear-293             [-1, 197, 512]         262,656
         Dropout-294             [-1, 197, 512]               0
       Attention-295             [-1, 197, 512]               0
        Identity-296             [-1, 197, 512]               0
       LayerNorm-297             [-1, 197, 512]           1,024
          Linear-298            [-1, 197, 2048]       1,050,624
            GELU-299            [-1, 197, 2048]               0
         Dropout-300            [-1, 197, 2048]               0
          Linear-301             [-1, 197, 512]       1,049,088
         Dropout-302             [-1, 197, 512]               0
             Mlp-303             [-1, 197, 512]               0
        Identity-304             [-1, 197, 512]               0
           Block-305             [-1, 197, 512]               0
       LayerNorm-306             [-1, 197, 512]           1,024
          Linear-307            [-1, 197, 1536]         787,968
         Dropout-308         [-1, 16, 197, 197]               0
          Linear-309             [-1, 197, 512]         262,656
         Dropout-310             [-1, 197, 512]               0
       Attention-311             [-1, 197, 512]               0
        Identity-312             [-1, 197, 512]               0
       LayerNorm-313             [-1, 197, 512]           1,024
          Linear-314            [-1, 197, 2048]       1,050,624
            GELU-315            [-1, 197, 2048]               0
         Dropout-316            [-1, 197, 2048]               0
          Linear-317             [-1, 197, 512]       1,049,088
         Dropout-318             [-1, 197, 512]               0
             Mlp-319             [-1, 197, 512]               0
        Identity-320             [-1, 197, 512]               0
           Block-321             [-1, 197, 512]               0
       LayerNorm-322             [-1, 197, 512]           1,024
          Linear-323            [-1, 197, 1536]         787,968
         Dropout-324         [-1, 16, 197, 197]               0
          Linear-325             [-1, 197, 512]         262,656
         Dropout-326             [-1, 197, 512]               0
       Attention-327             [-1, 197, 512]               0
        Identity-328             [-1, 197, 512]               0
       LayerNorm-329             [-1, 197, 512]           1,024
          Linear-330            [-1, 197, 2048]       1,050,624
            GELU-331            [-1, 197, 2048]               0
         Dropout-332            [-1, 197, 2048]               0
          Linear-333             [-1, 197, 512]       1,049,088
         Dropout-334             [-1, 197, 512]               0
             Mlp-335             [-1, 197, 512]               0
        Identity-336             [-1, 197, 512]               0
           Block-337             [-1, 197, 512]               0
       LayerNorm-338             [-1, 197, 512]           1,024
          Linear-339            [-1, 197, 1536]         787,968
         Dropout-340         [-1, 16, 197, 197]               0
          Linear-341             [-1, 197, 512]         262,656
         Dropout-342             [-1, 197, 512]               0
       Attention-343             [-1, 197, 512]               0
        Identity-344             [-1, 197, 512]               0
       LayerNorm-345             [-1, 197, 512]           1,024
          Linear-346            [-1, 197, 2048]       1,050,624
            GELU-347            [-1, 197, 2048]               0
         Dropout-348            [-1, 197, 2048]               0
          Linear-349             [-1, 197, 512]       1,049,088
         Dropout-350             [-1, 197, 512]               0
             Mlp-351             [-1, 197, 512]               0
        Identity-352             [-1, 197, 512]               0
           Block-353             [-1, 197, 512]               0
       LayerNorm-354             [-1, 197, 512]           1,024
          Linear-355            [-1, 197, 1536]         787,968
         Dropout-356         [-1, 16, 197, 197]               0
          Linear-357             [-1, 197, 512]         262,656
         Dropout-358             [-1, 197, 512]               0
       Attention-359             [-1, 197, 512]               0
        Identity-360             [-1, 197, 512]               0
       LayerNorm-361             [-1, 197, 512]           1,024
          Linear-362            [-1, 197, 2048]       1,050,624
            GELU-363            [-1, 197, 2048]               0
         Dropout-364            [-1, 197, 2048]               0
          Linear-365             [-1, 197, 512]       1,049,088
         Dropout-366             [-1, 197, 512]               0
             Mlp-367             [-1, 197, 512]               0
        Identity-368             [-1, 197, 512]               0
           Block-369             [-1, 197, 512]               0
       LayerNorm-370             [-1, 197, 512]           1,024
          Linear-371             [-1, 197, 768]         393,984
job dir: /app/src/fsfm-3c/pretrain
Namespace(batch_size=4,
epochs=5,
accum_iter=1,
model='fsfm_vit_base_patch16',
input_size=224,
patch_size=16,
normalize_from_IMN=False,
apply_simple_augment=False,
mask_ratio=0.75,
norm_pix_loss=False,
weight_sfr=0.007,
cl_loss='SimSiam',
cl_sample='all',
weight_cl=0.1,
t_momentum=0.996,
weight_decay=0.05,
lr=None,
blr=0.001,
min_lr=0.0,
warmup_epochs=40,
data_path=['/app/datasets/pretrain_datasets/mini_real'],
…
