…
tn.proj.bias', 'decoder_blocks.7.norm2.weight', 'decoder_blocks.7.norm2.bias', 'decoder_blocks.7.mlp.fc1.weight', 'decoder_blocks.7.mlp.fc1.bias', 'decoder_blocks.7.mlp.fc2.weight', 'decoder_blocks.7.mlp.fc2.bias', 'decoder_norm.weight', 'decoder_norm.bias', 'decoder_pred.weight', 'decoder_pred.bias'])
[12:54:21.916564] ----------------------------------------------------------------
[12:54:21.916601]         Layer (type)               Output Shape         Param #
[12:54:21.916604] ================================================================
[12:54:21.917702]             Conv2d-1          [-1, 768, 14, 14]         590,592
[12:54:21.917759]         PatchEmbed-2             [-1, 196, 768]               0
[12:54:21.917772]            Dropout-3             [-1, 197, 768]               0
[12:54:21.917794]          LayerNorm-4             [-1, 197, 768]           1,536
[12:54:21.918041]             Linear-5            [-1, 197, 2304]       1,771,776
[12:54:21.918073]            Dropout-6         [-1, 12, 197, 197]               0
[12:54:21.918088]             Linear-7             [-1, 197, 768]         590,592
[12:54:21.918098]            Dropout-8             [-1, 197, 768]               0
[12:54:21.918107]          Attention-9             [-1, 197, 768]               0
[12:54:21.918117]          Identity-10             [-1, 197, 768]               0
[12:54:21.918127]         LayerNorm-11             [-1, 197, 768]           1,536
[12:54:21.918161]            Linear-12            [-1, 197, 3072]       2,362,368
[12:54:21.918174]              GELU-13            [-1, 197, 3072]               0
[12:54:21.918184]           Dropout-14            [-1, 197, 3072]               0
[12:54:21.918195]            Linear-15             [-1, 197, 768]       2,360,064
[12:54:21.918205]           Dropout-16             [-1, 197, 768]               0
[12:54:21.918214]               Mlp-17             [-1, 197, 768]               0
[12:54:21.918223]          Identity-18             [-1, 197, 768]               0
[12:54:21.918233]             Block-19             [-1, 197, 768]               0
[12:54:21.918243]         LayerNorm-20             [-1, 197, 768]           1,536
[12:54:21.918254]            Linear-21            [-1, 197, 2304]       1,771,776
[12:54:21.918263]           Dropout-22         [-1, 12, 197, 197]               0
[12:54:21.918273]            Linear-23             [-1, 197, 768]         590,592
[12:54:21.918282]           Dropout-24             [-1, 197, 768]               0
[12:54:21.918291]         Attention-25             [-1, 197, 768]               0
[12:54:21.918299]          DropPath-26             [-1, 197, 768]               0
[12:54:21.918309]         LayerNorm-27             [-1, 197, 768]           1,536
[12:54:21.918319]            Linear-28            [-1, 197, 3072]       2,362,368
[12:54:21.918328]              GELU-29            [-1, 197, 3072]               0
[12:54:21.918337]           Dropout-30            [-1, 197, 3072]               0
[12:54:21.918346]            Linear-31             [-1, 197, 768]       2,360,064
[12:54:21.918356]           Dropout-32             [-1, 197, 768]               0
[12:54:21.918364]               Mlp-33             [-1, 197, 768]               0
[12:54:21.918373]          DropPath-34             [-1, 197, 768]               0
[12:54:21.918381]             Block-35             [-1, 197, 768]               0
[12:54:21.918391]         LayerNorm-36             [-1, 197, 768]           1,536
[12:54:21.918402]            Linear-37            [-1, 197, 2304]       1,771,776
[12:54:21.918410]           Dropout-38         [-1, 12, 197, 197]               0
[12:54:21.918420]            Linear-39             [-1, 197, 768]         590,592
[12:54:21.918429]           Dropout-40             [-1, 197, 768]               0
[12:54:21.918437]         Attention-41             [-1, 197, 768]               0
[12:54:21.918446]          DropPath-42             [-1, 197, 768]               0
[12:54:21.918469]         LayerNorm-43             [-1, 197, 768]           1,536
[12:54:21.918489]            Linear-44            [-1, 197, 3072]       2,362,368
[12:54:21.918500]              GELU-45            [-1, 197, 3072]               0
[12:54:21.918510]           Dropout-46            [-1, 197, 3072]               0
[12:54:21.918520]            Linear-47             [-1, 197, 768]       2,360,064
[12:54:21.918529]           Dropout-48             [-1, 197, 768]               0
[12:54:21.918538]               Mlp-49             [-1, 197, 768]               0
[12:54:21.918547]          DropPath-50             [-1, 197, 768]               0
[12:54:21.918555]             Block-51             [-1, 197, 768]               0
[12:54:21.918566]         LayerNorm-52             [-1, 197, 768]           1,536
[12:54:21.918575]            Linear-53            [-1, 197, 2304]       1,771,776
[12:54:21.918584]           Dropout-54         [-1, 12, 197, 197]               0
[12:54:21.918594]            Linear-55             [-1, 197, 768]         590,592
[12:54:21.918603]           Dropout-56             [-1, 197, 768]               0
[12:54:21.918612]         Attention-57             [-1, 197, 768]               0
[12:54:21.918620]          DropPath-58             [-1, 197, 768]               0
[12:54:21.918630]         LayerNorm-59             [-1, 197, 768]           1,536
[12:54:21.918640]            Linear-60            [-1, 197, 3072]       2,362,368
[12:54:21.918649]              GELU-61            [-1, 197, 3072]               0
[12:54:21.918658]           Dropout-62            [-1, 197, 3072]               0
[12:54:21.918668]            Linear-63             [-1, 197, 768]       2,360,064
[12:54:21.918676]           Dropout-64             [-1, 197, 768]               0
[12:54:21.918685]               Mlp-65             [-1, 197, 768]               0
[12:54:21.918694]          DropPath-66             [-1, 197, 768]               0
[12:54:21.918702]             Block-67             [-1, 197, 768]               0
[12:54:21.918712]         LayerNorm-68             [-1, 197, 768]           1,536
[12:54:21.918722]            Linear-69            [-1, 197, 2304]       1,771,776
[12:54:21.918731]           Dropout-70         [-1, 12, 197, 197]               0
[12:54:21.918741]            Linear-71             [-1, 197, 768]         590,592
[12:54:21.918750]           Dropout-72             [-1, 197, 768]               0
[12:54:21.918758]         Attention-73             [-1, 197, 768]               0
[12:54:21.918767]          DropPath-74             [-1, 197, 768]               0
[12:54:21.918777]         LayerNorm-75             [-1, 197, 768]           1,536
[12:54:21.918787]            Linear-76            [-1, 197, 3072]       2,362,368
[12:54:21.918795]              GELU-77            [-1, 197, 3072]               0
[12:54:21.918804]           Dropout-78            [-1, 197, 3072]               0
[12:54:21.918813]            Linear-79             [-1, 197, 768]       2,360,064
[12:54:21.918822]           Dropout-80             [-1, 197, 768]               0
[12:54:21.918830]               Mlp-81             [-1, 197, 768]               0
[12:54:21.918839]          DropPath-82             [-1, 197, 768]               0
[12:54:21.918848]             Block-83             [-1, 197, 768]               0
[12:54:21.918858]         LayerNorm-84             [-1, 197, 768]           1,536
[12:54:21.918868]            Linear-85            [-1, 197, 2304]       1,771,776
[12:54:21.918877]           Dropout-86         [-1, 12, 197, 197]               0
[12:54:21.918887]            Linear-87             [-1, 197, 768]         590,592
[12:54:21.918895]           Dropout-88             [-1, 197, 768]               0
[12:54:21.918904]         Attention-89             [-1, 197, 768]               0
[12:54:21.918913]          DropPath-90             [-1, 197, 768]               0
[12:54:21.918923]         LayerNorm-91             [-1, 197, 768]           1,536
[12:54:21.918932]            Linear-92            [-1, 197, 3072]       2,362,368
[12:54:21.918941]              GELU-93            [-1, 197, 3072]               0
[12:54:21.918950]           Dropout-94            [-1, 197, 3072]               0
[12:54:21.918960]            Linear-95             [-1, 197, 768]       2,360,064
[12:54:21.918968]           Dropout-96             [-1, 197, 768]               0
[12:54:21.918977]               Mlp-97             [-1, 197, 768]               0
[12:54:21.918986]          DropPath-98             [-1, 197, 768]               0
[12:54:21.918994]             Block-99             [-1, 197, 768]               0
[12:54:21.919004]        LayerNorm-100             [-1, 197, 768]           1,536
[12:54:21.919014]           Linear-101            [-1, 197, 2304]       1,771,776
[12:54:21.919023]          Dropout-102         [-1, 12, 197, 197]               0
[12:54:21.919033]           Linear-103             [-1, 197, 768]         590,592
[12:54:21.919041]          Dropout-104             [-1, 197, 768]               0
[12:54:21.919103]        Attention-105             [-1, 197, 768]               0
[12:54:21.919115]         DropPath-106             [-1, 197, 768]               0
[12:54:21.919129]        LayerNorm-107             [-1, 197, 768]           1,536
[12:54:21.919139]           Linear-108            [-1, 197, 3072]       2,362,368
[12:54:21.919148]             GELU-109            [-1, 197, 3072]               0
[12:54:21.919157]          Dropout-110            [-1, 197, 3072]               0
[12:54:21.919168]           Linear-111             [-1, 197, 768]       2,360,064
[12:54:21.919177]          Dropout-112             [-1, 197, 768]               0
[12:54:21.919186]              Mlp-113             [-1, 197, 768]               0
[12:54:21.919195]         DropPath-114             [-1, 197, 768]               0
[12:54:21.919204]            Block-115             [-1, 197, 768]               0
[12:54:21.919214]        LayerNorm-116             [-1, 197, 768]           1,536
[12:54:21.919224]           Linear-117            [-1, 197, 2304]       1,771,776
[12:54:21.919234]          Dropout-118         [-1, 12, 197, 197]               0
[12:54:21.919244]           Linear-119             [-1, 197, 768]         590,592
[12:54:21.919253]          Dropout-120             [-1, 197, 768]               0
[12:54:21.919261]        Attention-121             [-1, 197, 768]               0
[12:54:21.919270]         DropPath-122             [-1, 197, 768]               0
[12:54:21.919280]        LayerNorm-123             [-1, 197, 768]           1,536
[12:54:21.919290]           Linear-124            [-1, 197, 3072]       2,362,368
[12:54:21.919298]             GELU-125            [-1, 197, 3072]               0
[12:54:21.919307]          Dropout-126            [-1, 197, 3072]               0
[12:54:21.919316]           Linear-127             [-1, 197, 768]       2,360,064
[12:54:21.919325]          Dropout-128             [-1, 197, 768]               0
[12:54:21.919334]              Mlp-129             [-1, 197, 768]               0
[12:54:21.919343]         DropPath-130             [-1, 197, 768]               0
[12:54:21.919409]            Block-131             [-1, 197, 768]               0
[12:54:21.919461]        LayerNorm-132             [-1, 197, 768]           1,536
[12:54:21.919474]           Linear-133            [-1, 197, 2304]       1,771,776
[12:54:21.919490]          Dropout-134         [-1, 12, 197, 197]               0
[12:54:21.919502]           Linear-135             [-1, 197, 768]         590,592
[12:54:21.919512]          Dropout-136             [-1, 197, 768]               0
[12:54:21.919521]        Attention-137             [-1, 197, 768]               0
[12:54:21.919530]         DropPath-138             [-1, 197, 768]               0
[12:54:21.919540]        LayerNorm-139             [-1, 197, 768]           1,536
[12:54:21.919550]           Linear-140            [-1, 197, 3072]       2,362,368
[12:54:21.919574]             GELU-141            [-1, 197, 3072]               0
[12:54:21.919588]          Dropout-142            [-1, 197, 3072]               0
[12:54:21.919600]           Linear-143             [-1, 197, 768]       2,360,064
[12:54:21.919657]          Dropout-144             [-1, 197, 768]               0
[12:54:21.919769]              Mlp-145             [-1, 197, 768]               0
[12:54:21.919792]         DropPath-146             [-1, 197, 768]               0
[12:54:21.919803]            Block-147             [-1, 197, 768]               0
[12:54:21.919818]        LayerNorm-148             [-1, 197, 768]           1,536
[12:54:21.919829]           Linear-149            [-1, 197, 2304]       1,771,776
[12:54:21.919839]          Dropout-150         [-1, 12, 197, 197]               0
[12:54:21.919849]           Linear-151             [-1, 197, 768]         590,592
[12:54:21.919858]          Dropout-152             [-1, 197, 768]               0
[12:54:21.919867]        Attention-153             [-1, 197, 768]               0
[12:54:21.919876]         DropPath-154             [-1, 197, 768]               0
[12:54:21.919887]        LayerNorm-155             [-1, 197, 768]           1,536
[12:54:21.919897]           Linear-156            [-1, 197, 3072]       2,362,368
[12:54:21.919906]             GELU-157            [-1, 197, 3072]               0
[12:54:21.919914]          Dropout-158            [-1, 197, 3072]               0
[12:54:21.919925]           Linear-159             [-1, 197, 768]       2,360,064
[12:54:21.919933]          Dropout-160             [-1, 197, 768]               0
[12:54:21.920043]              Mlp-161             [-1, 197, 768]               0
[12:54:21.920075]         DropPath-162             [-1, 197, 768]               0
[12:54:21.920088]            Block-163             [-1, 197, 768]               0
[12:54:21.920105]        LayerNorm-164             [-1, 197, 768]           1,536
[12:54:21.920115]           Linear-165            [-1, 197, 2304]       1,771,776
[12:54:21.920125]          Dropout-166         [-1, 12, 197, 197]               0
[12:54:21.920136]           Linear-167             [-1, 197, 768]         590,592
[12:54:21.920144]          Dropout-168             [-1, 197, 768]               0
[12:54:21.920153]        Attention-169             [-1, 197, 768]               0
[12:54:21.920162]         DropPath-170             [-1, 197, 768]               0
[12:54:21.920172]        LayerNorm-171             [-1, 197, 768]           1,536
[12:54:21.920182]           Linear-172            [-1, 197, 3072]       2,362,368
[12:54:21.920191]             GELU-173            [-1, 197, 3072]               0
[12:54:21.920200]          Dropout-174            [-1, 197, 3072]               0
[12:54:21.920210]           Linear-175             [-1, 197, 768]       2,360,064
[12:54:21.920219]          Dropout-176             [-1, 197, 768]               0
[12:54:21.920229]              Mlp-177             [-1, 197, 768]               0
[12:54:21.920237]         DropPath-178             [-1, 197, 768]               0
[12:54:21.920246]            Block-179             [-1, 197, 768]               0
[12:54:21.920257]        LayerNorm-180             [-1, 197, 768]           1,536
[12:54:21.920267]           Linear-181            [-1, 197, 2304]       1,771,776
[12:54:21.920276]          Dropout-182         [-1, 12, 197, 197]               0
[12:54:21.920286]           Linear-183             [-1, 197, 768]         590,592
[12:54:21.920295]          Dropout-184             [-1, 197, 768]               0
[12:54:21.920304]        Attention-185             [-1, 197, 768]               0
[12:54:21.920312]         DropPath-186             [-1, 197, 768]               0
[12:54:21.920322]        LayerNorm-187             [-1, 197, 768]           1,536
[12:54:21.920332]           Linear-188            [-1, 197, 3072]       2,362,368
[12:54:21.920341]             GELU-189            [-1, 197, 3072]               0
[12:54:21.920350]          Dropout-190            [-1, 197, 3072]               0
[12:54:21.920360]           Linear-191             [-1, 197, 768]       2,360,064
[12:54:21.920369]          Dropout-192             [-1, 197, 768]               0
[12:54:21.920378]              Mlp-193             [-1, 197, 768]               0
[12:54:21.920386]         DropPath-194             [-1, 197, 768]               0
[12:54:21.920395]            Block-195             [-1, 197, 768]               0
[12:54:21.920411]        LayerNorm-196                  [-1, 768]           1,536
[12:54:21.920421]           Linear-197                    [-1, 2]           1,538
[12:54:21.920492] ================================================================
[12:54:21.920497] Total params: 85,648,130
[12:54:21.920501] Trainable params: 85,648,130
[12:54:21.920535] Non-trainable params: 0
[12:54:21.920538] ----------------------------------------------------------------
[12:54:21.920543] Input size (MB): 0.57
[12:54:21.920546] Forward/backward pass size (MB): 406.23
[12:54:21.920550] Params size (MB): 326.72
…
