…
tn.proj.bias', 'decoder_blocks.7.norm2.weight', 'decoder_blocks.7.norm2.bias', 'decoder_blocks.7.mlp.fc1.weight', 'decoder_blocks.7.mlp.fc1.bias', 'decoder_blocks.7.mlp.fc2.weight', 'decoder_blocks.7.mlp.fc2.bias', 'decoder_norm.weight', 'decoder_norm.bias', 'decoder_pred.weight', 'decoder_pred.bias'])
[12:49:41.722235] ----------------------------------------------------------------
[12:49:41.722285]         Layer (type)               Output Shape         Param #
[12:49:41.722295] ================================================================
[12:49:41.723148]             Conv2d-1          [-1, 768, 14, 14]         590,592
[12:49:41.723223]         PatchEmbed-2             [-1, 196, 768]               0
[12:49:41.723237]            Dropout-3             [-1, 197, 768]               0
[12:49:41.723263]          LayerNorm-4             [-1, 197, 768]           1,536
[12:49:41.723785]             Linear-5            [-1, 197, 2304]       1,771,776
[12:49:41.723816]            Dropout-6         [-1, 12, 197, 197]               0
[12:49:41.723833]             Linear-7             [-1, 197, 768]         590,592
[12:49:41.723844]            Dropout-8             [-1, 197, 768]               0
[12:49:41.723858]          Attention-9             [-1, 197, 768]               0
[12:49:41.723879]          Identity-10             [-1, 197, 768]               0
[12:49:41.723904]         LayerNorm-11             [-1, 197, 768]           1,536
[12:49:41.723933]            Linear-12            [-1, 197, 3072]       2,362,368
[12:49:41.723959]              GELU-13            [-1, 197, 3072]               0
[12:49:41.723977]           Dropout-14            [-1, 197, 3072]               0
[12:49:41.723990]            Linear-15             [-1, 197, 768]       2,360,064
[12:49:41.724000]           Dropout-16             [-1, 197, 768]               0
[12:49:41.724011]               Mlp-17             [-1, 197, 768]               0
[12:49:41.724020]          Identity-18             [-1, 197, 768]               0
[12:49:41.724029]             Block-19             [-1, 197, 768]               0
[12:49:41.724040]         LayerNorm-20             [-1, 197, 768]           1,536
[12:49:41.724051]            Linear-21            [-1, 197, 2304]       1,771,776
[12:49:41.724061]           Dropout-22         [-1, 12, 197, 197]               0
[12:49:41.724072]            Linear-23             [-1, 197, 768]         590,592
[12:49:41.724082]           Dropout-24             [-1, 197, 768]               0
[12:49:41.724091]         Attention-25             [-1, 197, 768]               0
[12:49:41.724101]          DropPath-26             [-1, 197, 768]               0
[12:49:41.724111]         LayerNorm-27             [-1, 197, 768]           1,536
[12:49:41.724123]            Linear-28            [-1, 197, 3072]       2,362,368
[12:49:41.724133]              GELU-29            [-1, 197, 3072]               0
[12:49:41.724142]           Dropout-30            [-1, 197, 3072]               0
[12:49:41.724152]            Linear-31             [-1, 197, 768]       2,360,064
[12:49:41.724162]           Dropout-32             [-1, 197, 768]               0
[12:49:41.724171]               Mlp-33             [-1, 197, 768]               0
[12:49:41.724181]          DropPath-34             [-1, 197, 768]               0
[12:49:41.724190]             Block-35             [-1, 197, 768]               0
[12:49:41.724201]         LayerNorm-36             [-1, 197, 768]           1,536
[12:49:41.724212]            Linear-37            [-1, 197, 2304]       1,771,776
[12:49:41.724222]           Dropout-38         [-1, 12, 197, 197]               0
[12:49:41.724233]            Linear-39             [-1, 197, 768]         590,592
[12:49:41.724243]           Dropout-40             [-1, 197, 768]               0
[12:49:41.724252]         Attention-41             [-1, 197, 768]               0
[12:49:41.724262]          DropPath-42             [-1, 197, 768]               0
[12:49:41.724272]         LayerNorm-43             [-1, 197, 768]           1,536
[12:49:41.724283]            Linear-44            [-1, 197, 3072]       2,362,368
[12:49:41.724293]              GELU-45            [-1, 197, 3072]               0
[12:49:41.724303]           Dropout-46            [-1, 197, 3072]               0
[12:49:41.724313]            Linear-47             [-1, 197, 768]       2,360,064
[12:49:41.724323]           Dropout-48             [-1, 197, 768]               0
[12:49:41.724332]               Mlp-49             [-1, 197, 768]               0
[12:49:41.724342]          DropPath-50             [-1, 197, 768]               0
[12:49:41.724351]             Block-51             [-1, 197, 768]               0
[12:49:41.724362]         LayerNorm-52             [-1, 197, 768]           1,536
[12:49:41.724373]            Linear-53            [-1, 197, 2304]       1,771,776
[12:49:41.724382]           Dropout-54         [-1, 12, 197, 197]               0
[12:49:41.724394]            Linear-55             [-1, 197, 768]         590,592
[12:49:41.724403]           Dropout-56             [-1, 197, 768]               0
[12:49:41.724413]         Attention-57             [-1, 197, 768]               0
[12:49:41.724423]          DropPath-58             [-1, 197, 768]               0
[12:49:41.724433]         LayerNorm-59             [-1, 197, 768]           1,536
[12:49:41.724443]            Linear-60            [-1, 197, 3072]       2,362,368
[12:49:41.724453]              GELU-61            [-1, 197, 3072]               0
[12:49:41.724462]           Dropout-62            [-1, 197, 3072]               0
[12:49:41.724473]            Linear-63             [-1, 197, 768]       2,360,064
[12:49:41.724482]           Dropout-64             [-1, 197, 768]               0
[12:49:41.724492]               Mlp-65             [-1, 197, 768]               0
[12:49:41.724501]          DropPath-66             [-1, 197, 768]               0
[12:49:41.724511]             Block-67             [-1, 197, 768]               0
[12:49:41.724522]         LayerNorm-68             [-1, 197, 768]           1,536
[12:49:41.724532]            Linear-69            [-1, 197, 2304]       1,771,776
[12:49:41.724556]           Dropout-70         [-1, 12, 197, 197]               0
[12:49:41.724570]            Linear-71             [-1, 197, 768]         590,592
[12:49:41.724580]           Dropout-72             [-1, 197, 768]               0
[12:49:41.724590]         Attention-73             [-1, 197, 768]               0
[12:49:41.724599]          DropPath-74             [-1, 197, 768]               0
[12:49:41.724632]         LayerNorm-75             [-1, 197, 768]           1,536
[12:49:41.724658]            Linear-76            [-1, 197, 3072]       2,362,368
[12:49:41.724672]              GELU-77            [-1, 197, 3072]               0
[12:49:41.724682]           Dropout-78            [-1, 197, 3072]               0
[12:49:41.724706]            Linear-79             [-1, 197, 768]       2,360,064
[12:49:41.724719]           Dropout-80             [-1, 197, 768]               0
[12:49:41.724751]               Mlp-81             [-1, 197, 768]               0
[12:49:41.724763]          DropPath-82             [-1, 197, 768]               0
[12:49:41.724773]             Block-83             [-1, 197, 768]               0
[12:49:41.724785]         LayerNorm-84             [-1, 197, 768]           1,536
[12:49:41.724809]            Linear-85            [-1, 197, 2304]       1,771,776
[12:49:41.724823]           Dropout-86         [-1, 12, 197, 197]               0
[12:49:41.724836]            Linear-87             [-1, 197, 768]         590,592
[12:49:41.724846]           Dropout-88             [-1, 197, 768]               0
[12:49:41.724855]         Attention-89             [-1, 197, 768]               0
[12:49:41.724864]          DropPath-90             [-1, 197, 768]               0
[12:49:41.724890]         LayerNorm-91             [-1, 197, 768]           1,536
[12:49:41.724911]            Linear-92            [-1, 197, 3072]       2,362,368
[12:49:41.724928]              GELU-93            [-1, 197, 3072]               0
[12:49:41.724938]           Dropout-94            [-1, 197, 3072]               0
[12:49:41.724950]            Linear-95             [-1, 197, 768]       2,360,064
[12:49:41.724959]           Dropout-96             [-1, 197, 768]               0
[12:49:41.724969]               Mlp-97             [-1, 197, 768]               0
[12:49:41.724979]          DropPath-98             [-1, 197, 768]               0
[12:49:41.725000]             Block-99             [-1, 197, 768]               0
[12:49:41.725017]        LayerNorm-100             [-1, 197, 768]           1,536
[12:49:41.725028]           Linear-101            [-1, 197, 2304]       1,771,776
[12:49:41.725039]          Dropout-102         [-1, 12, 197, 197]               0
[12:49:41.725051]           Linear-103             [-1, 197, 768]         590,592
[12:49:41.725061]          Dropout-104             [-1, 197, 768]               0
[12:49:41.725096]        Attention-105             [-1, 197, 768]               0
[12:49:41.725106]         DropPath-106             [-1, 197, 768]               0
[12:49:41.725118]        LayerNorm-107             [-1, 197, 768]           1,536
[12:49:41.725128]           Linear-108            [-1, 197, 3072]       2,362,368
[12:49:41.725138]             GELU-109            [-1, 197, 3072]               0
[12:49:41.725148]          Dropout-110            [-1, 197, 3072]               0
[12:49:41.725159]           Linear-111             [-1, 197, 768]       2,360,064
[12:49:41.725169]          Dropout-112             [-1, 197, 768]               0
[12:49:41.725178]              Mlp-113             [-1, 197, 768]               0
[12:49:41.725188]         DropPath-114             [-1, 197, 768]               0
[12:49:41.725198]            Block-115             [-1, 197, 768]               0
[12:49:41.725209]        LayerNorm-116             [-1, 197, 768]           1,536
[12:49:41.725221]           Linear-117            [-1, 197, 2304]       1,771,776
[12:49:41.725231]          Dropout-118         [-1, 12, 197, 197]               0
[12:49:41.725255]           Linear-119             [-1, 197, 768]         590,592
[12:49:41.725280]          Dropout-120             [-1, 197, 768]               0
[12:49:41.725292]        Attention-121             [-1, 197, 768]               0
[12:49:41.725302]         DropPath-122             [-1, 197, 768]               0
[12:49:41.725315]        LayerNorm-123             [-1, 197, 768]           1,536
[12:49:41.725327]           Linear-124            [-1, 197, 3072]       2,362,368
[12:49:41.725337]             GELU-125            [-1, 197, 3072]               0
[12:49:41.725347]          Dropout-126            [-1, 197, 3072]               0
[12:49:41.725358]           Linear-127             [-1, 197, 768]       2,360,064
[12:49:41.725368]          Dropout-128             [-1, 197, 768]               0
[12:49:41.725378]              Mlp-129             [-1, 197, 768]               0
[12:49:41.725388]         DropPath-130             [-1, 197, 768]               0
[12:49:41.725433]            Block-131             [-1, 197, 768]               0
[12:49:41.725448]        LayerNorm-132             [-1, 197, 768]           1,536
[12:49:41.725460]           Linear-133            [-1, 197, 2304]       1,771,776
[12:49:41.725470]          Dropout-134         [-1, 12, 197, 197]               0
[12:49:41.725506]           Linear-135             [-1, 197, 768]         590,592
[12:49:41.725524]          Dropout-136             [-1, 197, 768]               0
[12:49:41.725537]        Attention-137             [-1, 197, 768]               0
[12:49:41.725548]         DropPath-138             [-1, 197, 768]               0
[12:49:41.725561]        LayerNorm-139             [-1, 197, 768]           1,536
[12:49:41.725572]           Linear-140            [-1, 197, 3072]       2,362,368
[12:49:41.725581]             GELU-141            [-1, 197, 3072]               0
[12:49:41.725592]          Dropout-142            [-1, 197, 3072]               0
[12:49:41.725603]           Linear-143             [-1, 197, 768]       2,360,064
[12:49:41.725614]          Dropout-144             [-1, 197, 768]               0
[12:49:41.725624]              Mlp-145             [-1, 197, 768]               0
[12:49:41.725634]         DropPath-146             [-1, 197, 768]               0
[12:49:41.725643]            Block-147             [-1, 197, 768]               0
[12:49:41.725655]        LayerNorm-148             [-1, 197, 768]           1,536
[12:49:41.725666]           Linear-149            [-1, 197, 2304]       1,771,776
[12:49:41.725676]          Dropout-150         [-1, 12, 197, 197]               0
[12:49:41.725688]           Linear-151             [-1, 197, 768]         590,592
[12:49:41.725697]          Dropout-152             [-1, 197, 768]               0
[12:49:41.725708]        Attention-153             [-1, 197, 768]               0
[12:49:41.725718]         DropPath-154             [-1, 197, 768]               0
[12:49:41.725730]        LayerNorm-155             [-1, 197, 768]           1,536
[12:49:41.725741]           Linear-156            [-1, 197, 3072]       2,362,368
[12:49:41.725751]             GELU-157            [-1, 197, 3072]               0
[12:49:41.725762]          Dropout-158            [-1, 197, 3072]               0
[12:49:41.725772]           Linear-159             [-1, 197, 768]       2,360,064
[12:49:41.725783]          Dropout-160             [-1, 197, 768]               0
[12:49:41.725793]              Mlp-161             [-1, 197, 768]               0
[12:49:41.725802]         DropPath-162             [-1, 197, 768]               0
[12:49:41.725812]            Block-163             [-1, 197, 768]               0
[12:49:41.725824]        LayerNorm-164             [-1, 197, 768]           1,536
[12:49:41.725835]           Linear-165            [-1, 197, 2304]       1,771,776
[12:49:41.725844]          Dropout-166         [-1, 12, 197, 197]               0
[12:49:41.725856]           Linear-167             [-1, 197, 768]         590,592
[12:49:41.725865]          Dropout-168             [-1, 197, 768]               0
[12:49:41.725874]        Attention-169             [-1, 197, 768]               0
[12:49:41.725884]         DropPath-170             [-1, 197, 768]               0
[12:49:41.725895]        LayerNorm-171             [-1, 197, 768]           1,536
[12:49:41.725906]           Linear-172            [-1, 197, 3072]       2,362,368
[12:49:41.725916]             GELU-173            [-1, 197, 3072]               0
[12:49:41.725926]          Dropout-174            [-1, 197, 3072]               0
[12:49:41.725937]           Linear-175             [-1, 197, 768]       2,360,064
[12:49:41.725947]          Dropout-176             [-1, 197, 768]               0
[12:49:41.725957]              Mlp-177             [-1, 197, 768]               0
[12:49:41.725966]         DropPath-178             [-1, 197, 768]               0
[12:49:41.725976]            Block-179             [-1, 197, 768]               0
[12:49:41.725988]        LayerNorm-180             [-1, 197, 768]           1,536
[12:49:41.726000]           Linear-181            [-1, 197, 2304]       1,771,776
[12:49:41.726011]          Dropout-182         [-1, 12, 197, 197]               0
[12:49:41.726022]           Linear-183             [-1, 197, 768]         590,592
[12:49:41.726033]          Dropout-184             [-1, 197, 768]               0
[12:49:41.726043]        Attention-185             [-1, 197, 768]               0
[12:49:41.726054]         DropPath-186             [-1, 197, 768]               0
[12:49:41.726066]        LayerNorm-187             [-1, 197, 768]           1,536
[12:49:41.726078]           Linear-188            [-1, 197, 3072]       2,362,368
[12:49:41.726088]             GELU-189            [-1, 197, 3072]               0
[12:49:41.726098]          Dropout-190            [-1, 197, 3072]               0
[12:49:41.726108]           Linear-191             [-1, 197, 768]       2,360,064
[12:49:41.726118]          Dropout-192             [-1, 197, 768]               0
[12:49:41.726128]              Mlp-193             [-1, 197, 768]               0
[12:49:41.726138]         DropPath-194             [-1, 197, 768]               0
[12:49:41.726148]            Block-195             [-1, 197, 768]               0
[12:49:41.726160]        LayerNorm-196                  [-1, 768]           1,536
[12:49:41.726171]           Linear-197                    [-1, 2]           1,538
[12:49:41.726244] ================================================================
[12:49:41.726251] Total params: 85,648,130
[12:49:41.726255] Trainable params: 85,648,130
[12:49:41.726295] Non-trainable params: 0
[12:49:41.726299] ----------------------------------------------------------------
[12:49:41.726305] Input size (MB): 0.57
[12:49:41.726309] Forward/backward pass size (MB): 406.23
[12:49:41.726315] Params size (MB): 326.72
…
